CSC401 neural machine translation/Starter_files/model.pt (torch, 173725 bytes, 24 tensors)

encoder.rnn.weight_ih_l0 f4 [40, 21]
0	0xbdf5eeae	-0.12008415
1	0xbd646557	-0.055760708
2	0x3e00f5a6	0.12593707
3	0xbc334112	-0.010940807
4	0xbce9c622	-0.02853686
5	0x3d7fe5e8	0.062475115
6	0xbdddfa88	-0.10838801
7	0xbb4dc43a	-0.0031397478
8	0xbd05d44f	-0.032673176
9	0x3daab652	0.08335556
10	0x3e000c72	0.12504748
11	0x3de77db9	0.113032766
12	0x3dd95aec	0.10613045
13	0xbe15c085	-0.14624222
14	0xbd885411	-0.066566594
15	0x3d7776ce	0.060416035
16	0xbe0cfb9b	-0.13767855
17	0x3d21495d	0.039376605
18	0xbdd41550	-0.103556275
19	0x3d9b25fc	0.07575604
20	0x3ddb1381	0.106970794
21	0xbdeca8d2	-0.115556374
22	0x3e187342	0.14887717
23	0x3d88bb93	0.06676402
24	0xbdf64de3	-0.120265745
25	0x3df2bf6a	0.118529156
26	0xbdef9cf1	-0.11699856
27	0xbe0314ed	-0.12800951
28	0xbd961a1a	-0.07329197
29	0xbcdd9b58	-0.027051613
30	0x3d35d807	0.044395473
31	0xbd093307	-0.03349593
32	0xbdfe7b4a	-0.12425859
33	0xbb9dbe8a	-0.004813974
34	0x3e17f375	0.14838965
35	0x3dcf59a3	0.10124519
36	0x3dc0e574	0.09418765
37	0xbba669f0	-0.0050785467
38	0x3d86f34c	0.06589374
39	0xbe183efa	-0.14867774
40	0x3dc661eb	0.09686645
41	0xbe3086f0	-0.17238975
42	0xbd26bb34	-0.040705875
43	0xbc76d6e9	-0.015065887
44	0x3e049945	0.12949093
45	0xbcbc999f	-0.023022471
46	0xbde69abe	-0.112599835
47	0x3d103de9	0.035215292
48	0xbe19f735	-0.15035708
49	0xbd38a343	-0.045077574
50	0x3d529e7e	0.05142068
51	0x3b577c09	0.0032880327
52	0xbcadc172	-0.021210406
53	0x3de0c7f8	0.10975641
54	0xbdddc6ea	-0.108289555
55	0xbd75e688	-0.060034305
56	0x3e0b1957	0.13583885
57	0x3da3800e	0.07983409
58	0xbcf905f7	-0.030398352
59	0x3d9dd733	0.077070616
60	0x3db44b52	0.08803429
61	0xbc237956	-0.009977659
62	0xbd9c0246	-0.07617621
63	0xb919212e	-0.00014603577
64	0x3da61298	0.08109015
65	0xbcf0a8d1	-0.029377373
66	0x3d949692	0.072552815
67	0xbe1bc7f6	-0.15212998
68	0xbd73dc78	-0.059536427
69	0x3dd23424	0.10263851
70	0x3d0da11d	0.034577478
71	0x3ca8a201	0.020585062
72	0x3d8fc746	0.0702043
73	0xbcc074e5	-0.02349324
74	0xbd346fc3	-0.044051897
75	0x3d4867bf	0.048927065
76	0xbc9a0c0a	-0.018804569
77	0xbdb07188	-0.08615404
78	0x3d00c8df	0.031441566
79	0x3c9d906e	0.019233909
80	0xbc68ea95	-0.014216085
81	0xbdf6d7fe	-0.12052916
82	0xba9ed1f6	-0.0012117017
83	0xbdad5955	-0.08464304
84	0x3daa1874	0.08305445
85	0xbdd98c2f	-0.10622441
86	0x3dd20766	0.102553174
87	0x3d3d04e1	0.04614723
88	0xbe32a41a	-0.17445412
89	0x3e0d61e7	0.13806878
90	0xbe38f6ea	-0.1806294
91	0x3ce39e0d	0.027785325
92	0xbe032f04	-0.12810904
93	0xbdea42fc	-0.114385575
94	0x3d02a1e8	0.031892687
95	0xbd3c7674	-0.046011403
96	0x3e14f2d3	0.14545755
97	0xbdd0299e	-0.10164188
98	0x3dcf64ba	0.10126634
99	0x3dfe5876	0.12419216
100	0x3df7d7a0	0.12101674
101	0xbd046503	-0.032322895
102	0xbdd68569	-0.10474665
103	0xbda681e4	-0.081302434
104	0x3e0e6e60	0.13909292
105	0xbd9b66f2	-0.07587995
106	0xbd43e425	-0.047824997
107	0xbc23596f	-0.009970053
108	0x3c850dbc	0.0162419
109	0xbe299b25	-0.16563089
110	0x3e0eaa07	0.13932048
111	0xbdffa0be	-0.12481831
112	0x3e08f62b	0.13375156
113	0xbd6fad4b	-0.058514874
114	0xbd8575e1	-0.06516624
115	0xbb827e19	-0.003982317
116	0x3da6ba9a	0.0814106
117	0xbd1a6d19	-0.0377017
118	0xbe0b0842	-0.13577369
119	0x3dcb6c26	0.09932737
120	0x3e29fd6c	0.16600579
121	0x3d9c46ac	0.07630667
122	0x3e3169f3	0.17325573
123	0x3d0886a2	0.03333152
124	0x3b9366ec	0.004498353
125	0xbdfec815	-0.12440506
126	0xbe0fc2ea	-0.14039198
127	0xbdb9da6a	-0.09074862
128	0xbcd99b9f	-0.026563464
129	0x3de364b4	0.11103192
130	0xbd23f6ea	-0.040030397
131	0xbcc1a52b	-0.023638329
132	0x3c8dd03a	0.017311204
133	0xbdfcf6f6	-0.123517916
134	0x37ca7ebe	2.4139295e-05
135	0x3e07a780	0.1324749
136	0x3dd3832c	0.103277534
137	0x3dbfa441	0.09357501
138	0xbcb5d11b	-0.022194436
139	0xbca0930d	-0.01960137
140	0x3ddca626	0.10773878
141	0xbd748e4c	-0.059706017
142	0xbd4b8177	-0.049684014
143	0x3dfc7531	0.1232704
144	0x3cdd82f0	0.027039975
145	0xbe0392fd	-0.1284904
146	0x3e1560f0	0.1458776
147	0x3d2f9c2d	0.04287355
148	0x3db21797	0.08695906
149	0xbe1842a8	-0.14869177
150	0x3c30780b	0.010770808
151	0x3d88ee63	0.06686094
152	0xbbe159eb	-0.006877174
153	0xbde4a366	-0.11163978
154	0x3e14488e	0.14480802
155	0x3d7c5a6a	0.061609663
156	0x3d8594d0	0.06522524
157	0x3d50e45b	0.050999027
158	0x3ce3dea5	0.027816126
159	0x3dd8b9fb	0.10582348
160	0xbc123866	-0.008924579
161	0xbded9b88	-0.11601931
162	0x3d8271ca	0.0636936
163	0x3cd61f0e	0.026137855
164	0x3d8e65f3	0.06953039
165	0xbd373359	-0.044726703
166	0x3c458972	0.012056695
167	0xbc8b1566	-0.016977977
168	0x3d86b8af	0.06578194
169	0xbdd0bfe3	-0.101928495
170	0xbe169c42	-0.14708045
171	0x3d454376	0.04816004
172	0xbddbe3b5	-0.10736791
173	0xbc52d032	-0.01286702
174	0x3d074ace	0.033030324
175	0x3c5668c8	0.013086505
176	0x3dcadd75	0.09905521
177	0x3cf4c425	0.029878685
178	0x3d2e79e0	0.042596698
179	0x3c6b6429	0.014367142
180	0x3bee76b6	0.007277335
181	0x3daaf87b	0.08348175
182	0x3db10701	0.08643914
183	0xbe25d1ac	-0.16193265
184	0xbd9ff4b6	-0.07810347
185	0xbdf91483	-0.121621154
186	0xbd85e70c	-0.06538209
187	0x3de728f4	0.11287108
188	0xbe286503	-0.16444783
189	0xbe023f36	-0.12719426
190	0x3dd527f2	0.104080096
191	0xbdd118c8	-0.10209805
192	0x3e02b2e3	0.12763552
193	0x3dd411f4	0.10354987
194	0x3ce856b7	0.028361661
195	0x3e118a44	0.142129
196	0xbe1b8dd9	-0.1519083
197	0x3df65694	0.12028232
198	0x3d2b38b9	0.04180214
199	0xbde70a54	-0.11281267
200	0x3bd4284d	0.006474531
201	0xbd29264f	-0.0412963
202	0xbdc9d5de	-0.09855245
203	0x3b5177c6	0.003196226
204	0xbd93dc2f	-0.07219731
205	0x3e1f9711	0.15584971
206	0x3dfcceea	0.12344153
207	0xbbacabad	-0.005269489
208	0xbe209a12	-0.15683773
209	0x3abddce6	0.0014485389
210	0x3c924336	0.017854314
211	0x3ddfa5af	0.109202735
212	0x3c14a9d5	0.009073694
213	0x3cee18cd	0.02906456
214	0x3cc1d970	0.023663253
215	0xbda670ea	-0.081270054
216	0xbde2940d	-0.11063395
217	0xbe0c1a1e	-0.13681838
218	0x3c3cfb5b	0.011534537
219	0x3d8215a9	0.063517876
220	0x3c032c79	0.008006209
221	0x3e33a22f	0.17542337
222	0xbce3e0b6	-0.027817111
223	0xbda80808	-0.08204657
224	0x3c15741b	0.00912192
225	0xbd0deb3a	-0.034648158
226	0xbd07341e	-0.033008687
227	0x3e1c6497	0.15272747
228	0xbd017a67	-0.031610873
229	0x3e30cb7f	0.17265128
230	0xbb5a50b6	-0.0033312268
231	0xbd89e998	-0.067340076
232	0x3dcc79c3	0.09984162
233	0xbd81d8ef	-0.06340205
234	0xba9f7b5c	-0.0012167501
235	0xbca0ae44	-0.019614346
236	0x3da321df	0.07965445
237	0xbe2315a2	-0.15926221
238	0xbc06dde6	-0.008231616
239	0xbd4a0e38	-0.049329966
240	0x3dec680b	0.11543282
241	0x3d47139e	0.048602693
242	0x3dbbbb68	0.09166604
243	0x3dc0ef27	0.09420615
244	0xbc5434a7	-0.012952006
245	0xbd05b1be	-0.03264021
246	0x3e0ff30d	0.1405756
247	0xbe176792	-0.14785603
248	0xbdd1933a	-0.10233159
249	0x3d2c9d8b	0.042142432
250	0xbd4f0e56	-0.05055078
251	0x3c003dc6	0.007827228
252	0x3e0f50ef	0.13995717
253	0xbc9fd56a	-0.019510943
254	0xbe223a64	-0.15842587
255	0xbdb151fc	-0.086582154

encoder.rnn.weight_hh_l0 f4 [40, 40]
0	0xbc848609	-0.016177194
1	0xbd8dc873	-0.06922998
2	0x3d118afa	0.03553293
3	0xbddcd867	-0.10783463
4	0x3dcc0466	0.099617764
5	0xbdb29383	-0.08719542
6	0x3cca61cb	0.024704834
7	0xbe2a788c	-0.16647547
8	0x3d979d4c	0.07403049
9	0x3de665d4	0.11249891
10	0x3de5f33c	0.11228034
11	0x3b2b44b4	0.002613348
12	0x3dcafe26	0.09911756
13	0x3d5f5fe8	0.054534823
14	0x3dd7d5c9	0.10538823
15	0x3da4f561	0.08054615
16	0xbe058b2e	-0.13041374
17	0x3c95621c	0.018235259
18	0xbd3640f5	-0.04449554
19	0xbd99b417	-0.075050525
20	0x3de33739	0.11094517
21	0xbce3383c	-0.027736776
22	0x3c9c119a	0.019051362
23	0x3dca86de	0.09889005
24	0x3ded65dd	0.115916945
25	0x3d9adbc7	0.075614505
26	0xbd06531d	-0.032794107
27	0xbe14645c	-0.14491409
28	0xbe2d9cca	-0.16954342
29	0x3d2fc3e9	0.042911444
30	0xbbd9e2e5	-0.0066493624
31	0xbdbe5ac6	-0.092946574
32	0x3d6ecef3	0.05830283
33	0x3e1f860c	0.15578479
34	0x3dcc90f9	0.09988589
35	0xbc898310	-0.016786128
36	0x3d15c849	0.03656796
37	0xbdd4003d	-0.10351608
38	0x3dbc183c	0.0918431
39	0xbdfb912f	-0.12283551
40	0x3e02d999	0.1277832
41	0xbd8655b1	-0.06559313
42	0xbcf2817b	-0.029602757
43	0xbdf906a3	-0.12159469
44	0xbcac7b1f	-0.021054802
45	0xbb3ae69c	-0.0028518802
46	0xbd91f72b	-0.07127222
47	0x3df42cab	0.11922582
48	0x3dc9ac5c	0.09847328
49	0xbe1d5a38	-0.15366447
50	0xb9efce4e	-0.0004573934
51	0x3d8adc58	0.067803085
52	0x3e0be732	0.13662413
53	0xbd6b7201	-0.05748177
54	0x3dd7e9f9	0.105426736
55	0xbd183aa0	-0.037165284
56	0xbd9b5485	-0.0758448
57	0x3dc90bef	0.09816729
58	0xbdfaabdc	-0.12239811
59	0x3e20a485	0.15687759
60	0x3e391f81	0.18078424
61	0xbcd2e525	-0.02574403
62	0x3d72a508	0.059239417
63	0x3e0f2f7b	0.13982956
64	0x3d14a0fd	0.036286343
65	0x3d93f7c2	0.072249904
66	0x3d882b87	0.06648927
67	0xbd3d6833	-0.04624195
68	0x3d28c4a1	0.041203145
69	0xbdc7dac4	-0.09758523
70	0x3e1c6a63	0.15274958
71	0xbdaada34	-0.083424
72	0x3d4a32be	0.049364798
73	0xbd73152c	-0.059346363
74	0x3d87c585	0.06629471
75	0x3b0f6ffa	0.0021886812
76	0x3da98985	0.08278183
77	0xbce37ea6	-0.027770352
78	0xbdd57ca0	-0.10424161
79	0x3d35b4f9	0.044362042
80	0xbdba4836	-0.090958044
81	0xbe0715e7	-0.13191949
82	0x3db71b66	0.08940773
83	0xbdcabebe	-0.098996624
84	0xbd99e4e9	-0.07514364
85	0xbd578e58	-0.052625984
86	0x3cae9453	0.02131096
87	0xbd8b023c	-0.067875355
88	0xbd8e3d88	-0.0694533
89	0xbd1c53bc	-0.038165793
90	0x3de3aeff	0.11117362
91	0x3d1546d4	0.0364445
92	0xbde1b780	-0.11021328
93	0xbde5cd51	-0.112208016
94	0xbb584c04	-0.0033004293
95	0x3c9016a2	0.017588917
96	0xbc121c53	-0.008917886
97	0x3dd13834	0.10215798
98	0x3e116219	0.14197578
99	0x3d4549e8	0.048166186
100	0x3d7d7af4	0.061884835
101	0x3dc7d130	0.09756696
102	0xbd28391c	-0.04107009
103	0x3c9fd66e	0.019511428
104	0x3e09e551	0.13466384
105	0xbd525b7b	-0.051356774
106	0x3b18d782	0.0023321812
107	0xbd3253c7	-0.043536928
108	0xbe12c6eb	-0.14333694
109	0x3d9e92f7	0.07742875
110	0x3e045aa6	0.12925205
111	0xbda86361	-0.0822208
112	0x3d6cb1e9	0.057786856
113	0x3d314ee6	0.043288134
114	0x3d5ace6a	0.053419508
115	0x3dbfc34e	0.09363423
116	0x3e238c2a	0.15971437
117	0x3df45917	0.11931055
118	0xbe0a2ea0	-0.13494349
119	0xbd638572	-0.055547185
120	0x3dc6c036	0.0970463
121	0xbd9d5056	-0.076813385
122	0x3d57d9a6	0.0526978
123	0xbd6d5df2	-0.05795092
124	0x3c83d1eb	0.016091308
125	0x3d856854	0.0651404
126	0x3d5e2342	0.054232843
127	0x3dfb071a	0.12257214
128	0xbc2f3ab3	-0.010695147
129	0x3d8f539a	0.069983676
130	0x3d8a0a62	0.067402616
131	0xbd32738c	-0.043567225
132	0xbe0cb0f7	-0.13739382
133	0x3dfefa85	0.124501266
134	0xbd15a2fd	-0.03653239
135	0x3dcdd230	0.10049856
136	0x3dafcdd0	0.085841775
137	0x3c800233	0.015626049
138	0xbe086f92	-0.1332381
139	0x3ce6ae4c	0.028159283
140	0xbd6cb6a3	-0.057791363
141	0x3d5f8723	0.054572236
142	0xbd844bb4	-0.06459752
143	0x3ddc77bf	0.10765027
144	0xbe1ec180	-0.15503502
145	0xbc53c779	-0.012925976
146	0x3d0d663b	0.034521323
147	0x3d0fc006	0.035095237
148	0x3e0c265d	0.1368651
149	0xbd41acc8	-0.047283918
150	0xbde144a0	-0.10999417
151	0x3db7fb9e	0.08983539
152	0x3d6d9a2c	0.058008358
153	0x3db8082f	0.08985936
154	0xbdda3e9e	-0.106564745
155	0xbdbcadc0	-0.09212828
156	0xbd891c29	-0.06694824
157	0x3cd26c90	0.025686532
158	0x3d33b20d	0.043870974
159	0xbdd535a4	-0.10410622
160	0x3c1a257e	0.009408353
161	0xbb8debcb	-0.004331087
162	0x3e2e5eaa	0.17028299
163	0xbd0e7eaa	-0.034788765
164	0x3e37becd	0.17943878
165	0xbd849474	-0.06473628
166	0xbdb7a0a2	-0.08966185
167	0xbdbe3a0c	-0.09288415
168	0x3e097315	0.13422807
169	0xbe069b51	-0.13145186
170	0x3db0bbf8	0.08629602
171	0xbd103d82	-0.03521491
172	0x3e4d4ba7	0.2004839
173	0x3bf837ef	0.007575027
174	0xbdf00d36	-0.1172127
175	0xbb629fbb	-0.003458007
176	0x3b226103	0.0024777062
177	0xbe3ada67	-0.18247376
178	0x3cfcdb95	0.030866424
179	0x3e37733a	0.17915049
180	0x3d9a91a2	0.075473085
181	0x3cefb045	0.029258857
182	0xbd1bed7a	-0.038068272
183	0x3c1d3f16	0.00959756
184	0xbdc0a614	-0.09406677
185	0x3e0fbb92	0.14036396
186	0x3e1ecf35	0.1550873
187	0x3dc88ce4	0.09792498
188	0xbd75cb80	-0.060008526
189	0xbe0c1b9c	-0.13682407
190	0xbd875592	-0.06608118
191	0x3dff67f0	0.124709964
192	0xbdf4183a	-0.11918683
193	0xbe347581	-0.17622949
194	0xbd00dd6d	-0.031461168
195	0x3da16b6b	0.078818165
196	0xbe2c9e0d	-0.16857167
197	0xbdf0ebed	-0.11763749
198	0xbccc1303	-0.02491141
199	0xbda83578	-0.08213323
200	0x3e0d9e63	0.13829951
201	0x3d1b6159	0.037934635
202	0xbdb17665	-0.0866516
203	0xbe1598b8	-0.14609039
204	0x3e0e5c26	0.1390234
205	0x3caf2a48	0.021382466
206	0xbd410bba	-0.047130324
207	0x3d5f6ccd	0.05454712
208	0xbce7ea32	-0.028309915
209	0x3d84addc	0.064784735
210	0x3d64f55e	0.055898063
211	0xbd3b54c7	-0.045735147
212	0xbe0eb183	-0.13934903
213	0x3d8a7231	0.067600615
214	0xbdd1b749	-0.10240037
215	0xbd46ad8d	-0.048505355
216	0x3c5ed134	0.013599683
217	0xbdf7c2a2	-0.1209767
218	0x3ddc09fa	0.107440904
219	0xbdac153a	-0.08402486
220	0x3d80c801	0.06288148
221	0x3d269095	0.040665228
222	0x3dbadca4	0.09124115
223	0xbe357f68	-0.17724383
224	0x3a60d906	0.0008577261
225	0x3d99fda5	0.07519082
226	0xbddadd9f	-0.10686802
227	0x3d6cfa23	0.057855736
228	0xbc13c345	-0.009018724
229	0x3de3c6c5	0.11121897
230	0xbca45c0f	-0.020063428
231	0xbc24ae9a	-0.010051394
232	0xbd5fea0a	-0.054666556
233	0xbd5cbe47	-0.0538924
234	0x3ceb8b68	0.028752998
235	0xbe170074	-0.14746267
236	0x3df0c647	0.117565684
237	0x3e0d45cc	0.13796157
238	0x3d2b1999	0.04177246
239	0x3dd3bc44	0.10338643
240	0xbd921585	-0.07133011
241	0x3cad4b21	0.021153988
242	0xbcb7103e	-0.022346612
243	0xbe0078c1	-0.12546064
244	0xbd9e830e	-0.077398404
245	0xbdb125ce	-0.08649789
246	0xbd08becc	-0.033385083
247	0xbe21f828	-0.1581732
248	0xbdfe2049	-0.12408502
249	0x3b7a6639	0.0038207902
250	0xbd41b2df	-0.047289725
251	0xbe2bf89e	-0.16794059
252	0x3d2425c4	0.04007508
253	0x3ddd89fb	0.10817333
254	0x3de8d348	0.11368424
255	0x3e1fb2f3	0.15595607

encoder.rnn.bias_ih_l0 f4 [40]
0	0xbdede6ee	-0.11616312
1	0xbda64de0	-0.08120322
2	0xbb13870f	-0.002251092
3	0xbdfb8d33	-0.12282791
4	0xbddbddac	-0.1073564
5	0x3de315aa	0.110881165
6	0x3e27ee1d	0.16399427
7	0xbd894168	-0.067019284
8	0xbe0af573	-0.13570194
9	0xbd5fc9cf	-0.05463582
10	0x3d5c5a9c	0.05379735
11	0x3d407071	0.046982232
12	0xbd8e3ac7	-0.06944805
13	0xbe0bb32e	-0.1364257
14	0xbd6b68a5	-0.057472844
15	0xbd757c20	-0.059932828
16	0x3d934a1b	0.07191869
17	0xbdb63b5e	-0.08898042
18	0x3dec341b	0.11533376
19	0x3ba9df8f	0.005184121
20	0xbccad246	-0.02475847
21	0xbe1f88ca	-0.15579525
22	0x3e2f18bf	0.17099284
23	0xbc9cf20c	-0.019158386
24	0x3dee729a	0.11642952
25	0xbd9a22ec	-0.07526192
26	0xbe3440a9	-0.17602791
27	0xbdcd3a40	-0.10020876
28	0xbdaa8e0e	-0.08327876
29	0xbd09e693	-0.03366716
30	0xbd1a8a77	-0.037729707
31	0x3e16556c	0.14681023
32	0xbe08a6e2	-0.1334491
33	0x3d8be69b	0.06831094
34	0x3dfa5500	0.12223244
35	0x3a9ac16a	0.001180691
36	0xbda79aae	-0.081838
37	0xbb95e78f	-0.004574723
38	0x3d1b91b7	0.03798076
39	0x3db3427d	0.08752916

encoder.rnn.bias_hh_l0 f4 [40]
0	0xbd24e1ba	-0.040254332
1	0xbd8ae128	-0.067812264
2	0xbda5b22e	-0.08090626
3	0xbe2d084d	-0.16897698
4	0x3d1d6a0d	0.038431216
5	0xbdf8ee0c	-0.12154779
6	0xbd6de53c	-0.058079943
7	0xbc9ca0a3	-0.019119566
8	0x3df9878e	0.12184058
9	0x3e15ffbb	0.14648335
10	0xbe00062a	-0.12502351
11	0x3e07fc03	0.13279729
12	0x3df83913	0.12120261
13	0x3e05b118	0.13055837
14	0x3b7b6274	0.0038358243
15	0x3dd1bbe4	0.102409154
16	0x3d6c4b48	0.05768898
17	0xbdfe04d0	-0.12403262
18	0xbd80d122	-0.06289889
19	0xbc61b310	-0.013775602
20	0xbde1eab8	-0.11031097
21	0xbd891dcc	-0.066951364
22	0x3e11c97c	0.14237016
23	0x3da944af	0.082650535
24	0x3e1e5aa1	0.1546426
25	0x3bfd8b0a	0.007737522
26	0xbdd246d0	-0.10267413
27	0x3e059a5a	0.13047162
28	0x3c1a271b	0.0094087375
29	0x3d316a14	0.043314055
30	0xbda8be6e	-0.082394466
31	0x3da39d1c	0.079889506
32	0xbdd5d071	-0.10440148
33	0x3decad3f	0.115564816
34	0x3e029375	0.12751563
35	0x3d6a5940	0.05721402
36	0x3e0f40dc	0.13989586
37	0x3db0d218	0.08633822
38	0xbd756aef	-0.059916433
39	0xbdf4dfcb	-0.119567476

encoder.rnn.weight_ih_l0_reverse f4 [40, 21]
0	0x3d18b08d	0.037277747
1	0x3e0101cb	0.1259834
2	0xbd0365f5	-0.032079656
3	0xbc188fd0	-0.009311631
4	0x3dbb2d76	0.0913953
5	0x3dab87e1	0.08375526
6	0x3dcb9aa4	0.09941605
7	0x3d37d2ae	0.044878654
8	0xbc94543a	-0.018106569
9	0xbc9212a5	-0.017831156
10	0xbc0d3514	-0.008618612
11	0xbd4ece04	-0.05048944
12	0x3deb1b1c	0.1147978
13	0x3e325980	0.17416954
14	0x3d1fc029	0.039001618
15	0x3b62318e	0.00345144
16	0xbd90c044	-0.07067922
17	0xbde1f76f	-0.11033522
18	0xbd891e92	-0.06695284
19	0xbd9999d6	-0.07500045
20	0xbde477e3	-0.11155679
21	0xbc41c1ce	-0.011825992
22	0xbb64d91c	-0.0034919446
23	0x3ca84711	0.0205417
24	0xbe07eb9d	-0.13273473
25	0x3dab7475	0.08371822
26	0xbe024700	-0.12722397
27	0xbdc527e6	-0.09626751
28	0xbd4e06ba	-0.050299384
29	0xbc0e16e5	-0.008672451
30	0x3db25ba0	0.08708882
31	0xbceee95e	-0.029164013
32	0x3d570c5b	0.052502017
33	0xbcbdc252	-0.023163948
34	0xbd12cd38	-0.035840243
35	0xbd2fab93	-0.042888235
36	0x3d15a2ab	0.036532085
37	0xbe2de6cf	-0.16982578
38	0xbdb540da	-0.0885026
39	0x3dc40a17	0.09572237
40	0x3dcf1409	0.10111243
41	0xbbfdbef9	-0.007743713
42	0x3b66b212	0.0035201353
43	0x3d3fe1b9	0.046846125
44	0x3d0f936b	0.035052698
45	0xbe00edc2	-0.12590697
46	0xbdae7812	-0.08518995
47	0xbe04c611	-0.12966181
48	0xbe178387	-0.14796267
49	0xbc5b77f9	-0.013395303
50	0xbd2d6ec5	-0.042341966
51	0x3e13c438	0.1443032
52	0x3cc03a6e	0.023465361
53	0x3c3d92f9	0.011570686
54	0x3d068b6b	0.032847803
55	0x3de333bf	0.11093854
56	0xbd8aa05d	-0.06768868
57	0xbc0c6842	-0.008569779
58	0xbd227470	-0.039661825
59	0xbdcb58e9	-0.09929068
60	0xbd36e608	-0.04465297
61	0xbde9772b	-0.113996826
62	0xbd95b3b7	-0.073096685
63	0xbe0361e5	-0.12830313
64	0x3dd3efb5	0.10348455
65	0xbe16e927	-0.14737378
66	0x3e2e5d1c	0.17027706
67	0x3dd31363	0.10306432
68	0xbdec6609	-0.11542899
69	0x3e155a04	0.1458512
70	0xbd3c1cab	-0.045925777
71	0xbdee89ce	-0.11647378
72	0xbd1fec10	-0.039043486
73	0x3d82cd52	0.06386818
74	0xbe2b6a81	-0.16739847
75	0xbc8c0b52	-0.017095242
76	0x3cf30df1	0.029669734
77	0xbd25aad1	-0.040446106
78	0xbc8a60f5	-0.016891936
79	0xbd437a2e	-0.04772394
80	0xbe1b7bc0	-0.15183926
81	0x3e25e8ff	0.16202162
82	0xbe22295f	-0.15836094
83	0x3b45cceb	0.0030181955
84	0x3d38aac8	0.045084745
85	0xbdbf19b9	-0.09331078
86	0x3db20ee2	0.08694245
87	0xbde88096	-0.11352651
88	0x3e39e4b5	0.18153651
89	0x3d60f594	0.0549217
90	0xbb1c5f6a	-0.0023860582
91	0xbe1b7b49	-0.15183748
92	0x3ca3de05	0.020003328
93	0x3d187d66	0.037228964
94	0xbdd13239	-0.10214657
95	0xbd3e4b29	-0.046458397
96	0xbe2f4fb9	-0.17120256
97	0xbe3fc202	-0.18726352
98	0x3b7adc0a	0.0038278126
99	0x3e095bc7	0.13413917
100	0x3beeb582	0.007284821
101	0x3cfea93e	0.03108656
102	0xbd17ee51	-0.03709251
103	0xbdafc801	-0.085830696
104	0xbc803ad4	-0.015653051
105	0xbda9f23e	-0.08298157
106	0x3dc318d8	0.09526223
107	0x3e05da35	0.1307152
108	0xbde75ce0	-0.112970114
109	0x3d5deb4e	0.054179482
110	0xbdacbb22	-0.0843413
111	0xbd9bd9a2	-0.076098695
112	0xbd195b7f	-0.037440773
113	0xbd0b163f	-0.033956762
114	0xbde3c4ac	-0.111214966
115	0x3c0e8e09	0.008700856
116	0x3d8c358f	0.06846153
117	0xbcc3be9e	-0.023894604
118	0xbc985381	-0.018594505
119	0x3cbac400	0.022798538
120	0xbd1dfe06	-0.038572334
121	0x3dc55fef	0.096374385
122	0x3e500e0d	0.2031786
123	0xbcc2a852	-0.023761902
124	0x3c4b8b13	0.012423295
125	0x3e055849	0.1302196
126	0x3e1b5407	0.15168773
127	0xbde8b9f9	-0.113635965
128	0xbda19305	-0.0788937
129	0xbe2b8639	-0.1675042
130	0x3d8568d6	0.065141365
131	0x3e0ca7ae	0.1373584
132	0xbd96042f	-0.07325017
133	0x3d7f3c9f	0.062313672
134	0x3d010a3b	0.031503897
135	0xbdf95a64	-0.12175444
136	0x3d9d98b3	0.07695141
137	0x3dca3e5b	0.098751746
138	0x3c2a8b8f	0.01040925
139	0x3d408101	0.046998028
140	0x3c8a0182	0.016846422
141	0x3e088d0f	0.1333506
142	0x3e0667a9	0.1312548
143	0x3d810627	0.063000016
144	0x3d138742	0.036017664
145	0xbc11d485	-0.008900766
146	0x3d90c9dc	0.070697516
147	0xbda0d45f	-0.078530066
148	0xbe236324	-0.15955788
149	0x3dab8729	0.08375389
150	0x3d9b276f	0.07575881
151	0x3d8976f1	0.067121394
152	0x3d4803cd	0.04883175
153	0x3d1699e4	0.036767855
154	0x3d39e978	0.04538867
155	0x3d95b126	0.07309179
156	0xbdd6bdb2	-0.104854
157	0xbcde775f	-0.02715653
158	0x39911e31	0.0002767905
159	0xbd279eb3	-0.04092283
160	0xbe254cf4	-0.16142637
161	0x3d0f8295	0.035036642
162	0x3dd119f8	0.10210031
163	0xbd8cb487	-0.0687037
164	0x3e0b9457	0.13630806
165	0x3d8ee8fd	0.06978033
166	0x3d0179bb	0.03161023
167	0xbd50c353	-0.050967526
168	0xbe0310c9	-0.12799372
169	0xbd424d43	-0.047436964
170	0xbd0165e4	-0.03159131
171	0xbd90c55a	-0.07068892
172	0x3e31d497	0.17366253
173	0xbdb90ab9	-0.09035248
174	0xbdbcc05f	-0.092163794
175	0xbd7bb9bf	-0.06145644
176	0x3e19f07d	0.15033145
177	0xbd8e65e7	-0.0695303
178	0x3e27fd6f	0.16405271
179	0x3dbbaa8c	0.091633886
180	0xbdaf0e1c	-0.08547613
181	0x3d850d91	0.06496728
182	0x3db56aff	0.088582985
183	0xbe03c6a3	-0.12868743
184	0xbd46012b	-0.048340958
185	0x3de933d6	0.1138684
186	0x3e001cf6	0.12511048
187	0xbde03730	-0.10948026
188	0xbd0ba447	-0.034092214
189	0x3d8c7136	0.06857531
190	0x3d78611e	0.060639493
191	0x3b5ed7e4	0.0034003193
192	0xbdb09006	-0.0862122
193	0xbd988ebb	-0.07449099
194	0xbd1c421c	-0.038148984
195	0x3d9c4548	0.07630402
196	0xbca2cbb7	-0.01987253
197	0xbdc02162	-0.09381367
198	0xbd45295e	-0.048135154
199	0x3e22197d	0.15830036
200	0xbe193532	-0.14961699
201	0xbe2861ea	-0.16443601
202	0x3d893c3e	0.067009434
203	0x3e36dd7d	0.17857929
204	0xbe41cd27	-0.18925916
205	0xbe036619	-0.12831916
206	0xbdc83d24	-0.09777287
207	0x3e58eb34	0.21183473
208	0xbe18eb0c	-0.14933413
209	0x3bad44a3	0.005287723
210	0x3df5416c	0.11975369
211	0xbd1b0775	-0.03784891
212	0xbd100689	-0.035162482
213	0xbdb7f677	-0.08982556
214	0x3cc2a66e	0.023761
215	0x3e0595e1	0.13045456
216	0x3da85630	0.08219564
217	0x3d9f58e3	0.07780626
218	0xbb3a3209	-0.002841117
219	0xbd12010d	-0.035645533
220	0xbd3aff88	-0.04565385
221	0x3da00638	0.07813686
222	0xbd3053d5	-0.0430487
223	0xbe1b0422	-0.15138295
224	0xbd28ea50	-0.041239083
225	0x3d70eee7	0.058821585
226	0x3e353e24	0.17699486
227	0xbc8e47af	-0.017368166
228	0xbde521ec	-0.11188111
229	0xbe0c2623	-0.13686423
230	0xbe09bb59	-0.13450374
231	0x3d46ae4a	0.04850606
232	0x3ddb6a11	0.1071359
233	0x3cfeb550	0.031092316
234	0x3d899bee	0.06719194
235	0x3e24f86f	0.16110395
236	0x3dd8b847	0.10582023
237	0x3de96315	0.113958515
238	0x3d626ebb	0.055281382
239	0x3db0ff06	0.08642392
240	0x3d9decfc	0.07711217
241	0xbdc7cd02	-0.09755899
242	0xbdeb58e9	-0.11491568
243	0xbcbdf9ac	-0.023190342
244	0xbbee46b1	-0.0072716107
245	0xbdfd768c	-0.12376127
246	0xbe22e18c	-0.15906352
247	0xbdf2e894	-0.11860767
248	0x3d953b45	0.072866954
249	0x3e214db4	0.15752298
250	0xbe095638	-0.13411796
251	0xba2bb43a	-0.0006549988
252	0xbd2429b2	-0.040078826
253	0x3e0d12a5	0.13776644
254	0xbe0910f9	-0.13385381
255	0xbddf008e	-0.10888778

encoder.rnn.weight_hh_l0_reverse f4 [40, 40]
0	0x3d974f54	0.073881775
1	0x3d7318e8	0.059349924
2	0x3e185511	0.148762
3	0xbe3582bb	-0.17725651
4	0xbdf3d5fa	-0.11906047
5	0x3ce8f7a8	0.028438404
6	0xbcaab80d	-0.020839715
7	0xbdf3b8e2	-0.11900498
8	0xbe2cac30	-0.1686256
9	0xbe13bbcd	-0.14427109
10	0xbcbf9838	-0.023388013
11	0x3dfc625e	0.123234496
12	0x3df9c0c4	0.1219497
13	0x3dc8edd1	0.09810985
14	0xbdefb810	-0.11705029
15	0xbd4beef7	-0.04978844
16	0x3cc665a2	0.024218384
17	0xbe0067e3	-0.1253963
18	0xbcd0df0b	-0.02549698
19	0x3d366434	0.044529155
20	0x3e14f9a6	0.14548358
21	0xbc9b6b10	-0.01897195
22	0x3e2738e0	0.1633029
23	0x3d26564a	0.040609635
24	0xbe022296	-0.12708506
25	0x3e111b52	0.14170578
26	0x3e334a64	0.17508847
27	0xbdef3477	-0.11679929
28	0xbddcbdfd	-0.10778425
29	0x3d8c9c88	0.068657935
30	0xbdaa7c3c	-0.08324477
31	0x3daaa74a	0.08332689
32	0xbd50035e	-0.05078446
33	0xbd1fcc9a	-0.039013483
34	0xbd6cae67	-0.05778351
35	0x3e0198d3	0.12655954
36	0xbd8a0333	-0.067388915
37	0xbcecfd18	-0.028929278
38	0x3df9eef5	0.122037806
39	0xbde63145	-0.11239866
40	0x3bd70d4c	0.0065628644
41	0xbdf1a03a	-0.11798139
42	0xbe0265f8	-0.1273421
43	0xbd6b5175	-0.05745073
44	0x3936d62a	0.00017436655
45	0x3e347c59	0.1762556
46	0xbe118576	-0.14211068
47	0xbd789964	-0.06069316
48	0x3cb1313e	0.021629926
49	0x3d18c8c9	0.03730086
50	0x3de0c8a4	0.10975769
51	0xbdff858f	-0.12476646
52	0xbcad3fd8	-0.021148607
53	0x3d888840	0.066666126
54	0xbe0f4f30	-0.13995051
55	0x3daed676	0.08536999
56	0xbe0d3279	-0.13788785
57	0x3dec81de	0.11548208
58	0x3d0cc414	0.034366682
59	0xbd24aa11	-0.04020125
60	0x3d8a2a80	0.067463875
61	0x3e1a605c	0.1507582
62	0x3e01c51f	0.12672852
63	0x3dcb8555	0.099375404
64	0xbdd87bd8	-0.10570496
65	0x3cf872fe	0.03032827
66	0x3e15583e	0.14584443
67	0x3d3087c8	0.04309824
68	0x3db2c78c	0.08729467
69	0xbdd130cd	-0.10214386
70	0x3df79e31	0.120907195
71	0xbcbad2f9	-0.022805678
72	0xbdf951eb	-0.12173828
73	0xbccb83c7	-0.02484311
74	0x3e01cde2	0.12676194
75	0xbd9fceb2	-0.07803096
76	0xbd35aa5e	-0.044351928
77	0xbd88b3e7	-0.06674939
78	0xbd61d79b	-0.055137258
79	0x3cd9efad	0.026603544
80	0x3db5cd92	0.088771
81	0x3bab6e12	0.0052316273
82	0x3b18edb9	0.0023335053
83	0xbab0bc1b	-0.0013483794
84	0xbe0678d2	-0.13132027
85	0xbc860c9c	-0.016363434
86	0xb9976210	-0.00028874027
87	0xbe06f468	-0.13179171
88	0x3d9756e2	0.073896185
89	0x3c962ad1	0.018330963
90	0xbafede66	-0.0019444942
91	0x3c06511b	0.008198048
92	0x3e110f3e	0.1416597
93	0x3e442197	0.19153439
94	0x3d8b6a6d	0.068074085
95	0x3ddcdb45	0.1078401
96	0xbdada892	-0.08479418
97	0x3d89159c	0.06693575
98	0xbdeab384	-0.11460021
99	0x3d42e796	0.04758414
100	0xbded7475	-0.11594478
101	0x3cde5e8d	0.027144695
102	0x3dd3cbfa	0.1034164
103	0x3ddbf448	0.10739952
104	0x3e120f82	0.14263728
105	0x3d51da1a	0.05123339
106	0x3dc9c4d2	0.098519936
107	0x3d24e361	0.040255908
108	0x3de406c8	0.11134106
109	0x3d579ebd	0.05264162
110	0x3d3ca99a	0.046060182
111	0xbd528cea	-0.051403917
112	0xbd60ca5e	-0.054880492
113	0xbcf3f1bb	-0.029778352
114	0x3d97b0e0	0.07406783
115	0xbde16a4f	-0.11006605
116	0x3d20a026	0.03921523
117	0x3e1bb9a4	0.15207535
118	0x3e2b042f	0.16700815
119	0xbe1f28e6	-0.15542945
120	0x3d18c2e2	0.03729523
121	0x3dea5209	0.11441428
122	0xbe26f9e8	-0.16306269
123	0x3e09ee87	0.13469897
124	0xbda24839	-0.07923932
125	0xbe1d5321	-0.15363742
126	0xbd96bde6	-0.07360439
127	0xbd3dc3a6	-0.046329163
128	0xbd365f78	-0.04452464
129	0x3da80fde	0.082061514
130	0x3d6598d8	0.056053966
131	0x3d822d79	0.063563295
132	0x3db834d0	0.08994448
133	0xbe0e6381	-0.13905145
134	0xbe079d4e	-0.132436
135	0xbe0e526a	-0.13898626
136	0xbdc8002b	-0.09765657
137	0xbdcc5c30	-0.09978521
138	0x3db77bb5	0.08959142
139	0xbdf86b15	-0.12129799
140	0xbe04406e	-0.12915203
141	0x3d80a63b	0.06281706
142	0xbdda0860	-0.10646129
143	0x3c8493c7	0.016183747
144	0xbdd4fa5c	-0.10399315
145	0x3d98d473	0.074623965
146	0x3d67671b	0.056494813
147	0xbe146d30	-0.14494777
148	0x3d9e6453	0.07733979
149	0xbd7b1d92	-0.061307497
150	0x3db40bd7	0.08791321
151	0x3e26f48a	0.16304222
152	0xbe211865	-0.15731962
153	0x3d2b5f17	0.04183873
154	0x3deea7e6	0.11653118
155	0x3e307a69	0.17234196
156	0x3e0fc3d2	0.14039543
157	0x3cbedd0f	0.023298768
158	0xbcb68eda	-0.022284914
159	0x3d190553	0.037358593
160	0xbddbd480	-0.107338905
161	0xbcc07539	-0.023493396
162	0xbc86e20e	-0.016465213
163	0xbda5a402	-0.08087923
164	0x3c1f8949	0.009737321
165	0xbd64c581	-0.055852417
166	0xbd769e01	-0.060209278
167	0xbd138e25	-0.03602423
168	0xbe105ce5	-0.14097936
169	0x3e27c10d	0.16382237
170	0x3d8069b7	0.062701635
171	0x3df79805	0.12089542
172	0xbe191615	-0.1494983
173	0xbe38de8e	-0.18053648
174	0x3e07e82a	0.13272157
175	0xbcf3d142	-0.029762868
176	0x3c8996f4	0.016795613
177	0x3d8dac63	0.06917646
178	0x3cc765d4	0.024340548
179	0xbb498833	-0.0030751347
180	0x3da4f84b	0.080551706
181	0x3dde3f5a	0.10851927
182	0xbd4bbacb	-0.049738687
183	0xbe17cef0	-0.14825034
184	0xbd947ce3	-0.07250383
185	0x3e07f7d9	0.1327814
186	0xbc290670	-0.010316476
187	0x3df33a30	0.11876333
188	0xbd2a98cc	-0.041649625
189	0xbe0d79e8	-0.13816035
190	0x3d2cac1d	0.042156328
191	0xbd684630	-0.05670756
192	0xbde54058	-0.11193913
193	0x3db5a723	0.088697694
194	0x3cd281d1	0.025696667
195	0x3b7263a1	0.0036985653
196	0x3e2a2424	0.16615349
197	0x3e06057b	0.13088028
198	0xbe0cbd24	-0.13744026
199	0xbe119c91	-0.14219882
200	0xbde17aae	-0.110097274
201	0xbe226d25	-0.15861948
202	0xbdd8e857	-0.1059119
203	0x3dec35c9	0.11533696
204	0xbda0bc1c	-0.07848379
205	0x3e155618	0.14583623
206	0x3ccafb28	0.024777964
207	0x3d10b11b	0.03532515
208	0x3d433bb5	0.047664363
209	0x3d4cd75f	0.05001008
210	0x3cbefe63	0.02331466
211	0xbe06bf2f	-0.13158868
212	0xbccce5e9	-0.025011973
213	0x3dc9fac8	0.09862286
214	0x3e143455	0.14473088
215	0x3c1c89ae	0.00955431
216	0xbe0def66	-0.13860855
217	0x3d78624f	0.06064063
218	0xbdf4a162	-0.11944844
219	0x3dd599a9	0.10429699
220	0x3d82bdea	0.063838795
221	0x3d817ae3	0.06322267
222	0xbc4488a0	-0.011995465
223	0x3dcc6617	0.099804096
224	0xbd18df65	-0.03732242
225	0xbdcc87c7	-0.09986835
226	0xbdc6dcb0	-0.097100616
227	0x3db79af5	0.089651026
228	0xbd5986a4	-0.05310692
229	0xbe2ad447	-0.1668254
230	0x3b46bb43	0.003032402
231	0xbdac36f2	-0.084089175
232	0xbcc59dea	-0.02412315
233	0xbdeaf9d1	-0.1147343
234	0x3d72eee9	0.059309874
235	0xbbe97c76	-0.0071254326
236	0x3d3b112f	0.045670684
237	0x3dd469a0	0.10371709
238	0xbdc55d58	-0.096369445
239	0xbdbcdec8	-0.0922218
240	0xbdb997b9	-0.09062142
241	0x3e060446	0.13087568
242	0xbd361dcb	-0.044462007
243	0x3d3096da	0.043112613
244	0x3cbf1953	0.023327505
245	0xbe02f617	-0.12789188
246	0xbde711bd	-0.1128268
247	0xbd52a91e	-0.051430814
248	0xbe0aa718	-0.13540304
249	0x3d94d94f	0.07268011
250	0x3dd2a60d	0.10285578
251	0xbc0127c3	-0.007883015
252	0x3cf5ce68	0.030005649
253	0x3d60f455	0.054920513
254	0x3d012b91	0.03153569
255	0xbd1c0c82	-0.038097866

encoder.rnn.bias_ih_l0_reverse f4 [40]
0	0xbd9d3745	-0.076765575
1	0x3d3da400	0.04629898
2	0xbdc26feb	-0.09494003
3	0xbdacdab9	-0.084401555
4	0x3dd0d3f5	0.101966776
5	0x3c94ddf4	0.018172242
6	0xbdff7500	-0.12473488
7	0x3c2940be	0.010330377
8	0x3e00729b	0.12543719
9	0x3cffd77e	0.031230684
10	0xbca528d8	-0.020161077
11	0xbd35fe7a	-0.04443214
12	0xbdb2378c	-0.08702001
13	0x3de31dd3	0.11089673
14	0x3b13d468	0.0022557024
15	0xbd88cbcc	-0.06679496
16	0xbc27b48b	-0.010235916
17	0x3d4d723c	0.05015777
18	0x3c3d8869	0.011568167
19	0xbcdc52e1	-0.026894988
20	0xbe2b8803	-0.16751103
21	0x3c3d54a6	0.011555826
22	0xbd880d20	-0.066431284
23	0xbc93a88d	-0.018024707
24	0xbdc22d1b	-0.094812594
25	0x3d8ab86e	0.067734584
26	0xbda397a3	-0.07987907
27	0xbd8fa1bd	-0.07013271
28	0xbd83e7e1	-0.06440712
29	0xbd9ec927	-0.077532105
30	0xbc373203	-0.011181357
31	0xbd701a7e	-0.058619015
32	0xbd437195	-0.047715742
33	0x3d10e1cf	0.035371598
34	0x3daa7ee1	0.083249815
35	0xbd8b2a1f	-0.06795143
36	0x3da986c7	0.0827766
37	0x3d88cca3	0.06679656
38	0x3dda83ad	0.106696464
39	0x3c415c2d	0.011801762

encoder.rnn.bias_hh_l0_reverse f4 [40]
0	0x3df175a0	0.11790013
1	0xbe234107	-0.15942775
2	0x3d1c92de	0.038226
3	0xbdff0014	-0.12451187
4	0x3da8a770	0.08235061
5	0xbd0696e5	-0.032858748
6	0xbd29c146	-0.041444086
7	0x3e19f9c8	0.1503669
8	0x3e098786	0.13430604
9	0xbd365819	-0.04451761
10	0xbda2e43c	-0.079536885
11	0x3d909d40	0.07061243
12	0xbd80ab30	-0.062826514
13	0xbd5ab671	-0.053396646
14	0xbdf43fb3	-0.11926212
15	0x3e302416	0.17201266
16	0xbc242b57	-0.010020099
17	0x3d03e473	0.032200288
18	0xbdb25079	-0.08706755
19	0x3d74b59d	0.059743512
20	0xbe2cdbca	-0.16880718
21	0xbcf24dc2	-0.029578093
22	0xbd23e441	-0.0400126
23	0x3d9dce79	0.07705397
24	0xbc4b73b0	-0.012417719
25	0x3cfc2f76	0.03078435
26	0x3e0e40b8	0.13891876
27	0x3d160a8f	0.036631163
28	0x3e0c052b	0.13673846
29	0xbd543e28	-0.05181709
30	0x3daca6ef	0.084302776
31	0xbc513baa	-0.012770573
32	0x3c17e0ec	0.009269934
33	0x3d570492	0.052494593
34	0x3e2d4c2f	0.16923593
35	0x3c01cd7b	0.0079225255
36	0xbc96b9fa	-0.018399227
37	0xbd2c0a7d	-0.04200219
38	0xbdec05e3	-0.1152456
39	0x3db2d96c	0.08732876

encoder.rnn.weight_ih_l1 f4 [40, 80]
0	0xbd4bc85e	-0.049751632
1	0xbdb3f79d	-0.08787463
2	0x3c363edb	0.011123384
3	0x3a3faaf3	0.0007311545
4	0xbc3b987c	-0.011449929
5	0x3e054a07	0.1301652
6	0x3e00b329	0.12568344
7	0x3c49da6b	0.012320141
8	0xbdc99d55	-0.09844462
9	0xbd3a2e0b	-0.045454066
10	0x3dd77497	0.105202846
11	0x3beb460b	0.0071799806
12	0xbdcff26b	-0.101536594
13	0xbc24e455	-0.010064204
14	0xbb4dcecd	-0.003140378
15	0x3cf2baf3	0.02963016
16	0x3e21c760	0.15798712
17	0xbb229ad5	-0.0024811525
18	0x3b2e4b0d	0.0026595027
19	0x3db43d16	0.08800714
20	0xbd3d4588	-0.04620889
21	0x3cfbe06e	0.030746665
22	0xbde1634a	-0.11005266
23	0xbd2c4895	-0.042061407
24	0xbdc6f225	-0.09714154
25	0x3bc9ff7e	0.0061644902
26	0xbe19bd64	-0.15013653
27	0x3dd5b682	0.10435201
28	0xbddadf60	-0.10687137
29	0xbe082891	-0.13296725
30	0xbc7fc995	-0.015612026
31	0xbd490acd	-0.049082566
32	0xbdeea585	-0.11652664
33	0x3e0717b7	0.1319264
34	0x3d8663ff	0.065620415
35	0x3c9291d7	0.017891807
36	0x3dd084ae	0.10181557
37	0xbd9efdab	-0.07763227
38	0x3caf5fbd	0.021407956
39	0x3e3464d0	0.17616582
40	0xbd8f6562	-0.07001759
41	0x3d289bf3	0.04116435
42	0x3de4cbcb	0.11171683
43	0xbc0e025d	-0.008667556
44	0x3e1b6c6a	0.15178075
45	0xbd2a709c	-0.0416113
46	0xbd583466	-0.052784346
47	0x3d905d7d	0.070490815
48	0x3a1e5092	0.00060392276
49	0xbd13e893	-0.036110472
50	0xbd4ec568	-0.05048123
51	0x3ca51ac4	0.020154364
52	0xbdd7ec02	-0.10543062
53	0xbe0665e2	-0.13124803
54	0xbdec1172	-0.11526765
55	0x3e1e6a06	0.15470132
56	0xbc7a2997	-0.015268705
57	0x3d694ab2	0.056956
58	0xbe070aa7	-0.13187657
59	0xbd6c7fee	-0.05773919
60	0xbe17f587	-0.14839755
61	0xbc88d7c2	-0.016704444
62	0x3df958fa	0.12175174
63	0x3dca1a51	0.09868301
64	0xbd34e0fc	-0.044159874
65	0xbd87b160	-0.066256285
66	0xbe1dc680	-0.15407753
67	0xbdba02d9	-0.090825744
68	0x3da6b75e	0.08140443
69	0xbdd8b7fd	-0.10581968
70	0x3d863eee	0.06554972
71	0xbd2096d1	-0.03920633
72	0x3dffe4fd	0.12494848
73	0xbd421e23	-0.047392022
74	0xbc73a6da	-0.0148713235
75	0x3df11d2d	0.11773143
76	0x3e111692	0.14168766
77	0x3e05768a	0.130335
78	0x3da033c0	0.078223705
79	0xbe2ab77d	-0.16671558
80	0x3dd3ad09	0.10335738
81	0xbd82337b	-0.06357475
82	0x3e09ebf4	0.13468915
83	0x3e1392d9	0.14411487
84	0xbbe0c9d2	-0.0068599964
85	0x3d409028	0.047012478
86	0x3c9114be	0.017710086
87	0x3db28796	0.08717267
88	0x3dfcbbef	0.12340533
89	0x3ced26c5	0.02894915
90	0xbd00f061	-0.031479243
91	0x3cbc166d	0.022959912
92	0x3c353df5	0.011062135
93	0xbe0d93c6	-0.13825902
94	0x3d97769b	0.07395669
95	0xbdf607df	-0.1201322
96	0x3da7c33c	0.08191535
97	0x3e0f8b0a	0.14017883
98	0x3c38b391	0.011273281
99	0x3e1ac4af	0.15114091
100	0x3cb670a6	0.022270512
101	0x3df2e745	0.118605174
102	0x3d964378	0.073370874
103	0xbe197fd5	-0.1499017
104	0xbe145975	-0.1448725
105	0xbcfdd7e1	-0.030986728
106	0x3da9ff45	0.08300642
107	0xbc42b090	-0.011882916
108	0xbc6acac4	-0.01433057
109	0x3de2c80d	0.11073313
110	0x3e243b4f	0.1603825
111	0x3d449de9	0.048002157
112	0x3d827f43	0.063719295
113	0x3d807553	0.06272378
114	0x3bad549e	0.005289628
115	0xbe003c65	-0.12523039
116	0xbe303327	-0.17207013
117	0xbe031dd7	-0.12804352
118	0xbe1b3c34	-0.15159684
119	0x3dd0d755	0.10197321
120	0x3c0d19b2	0.008612083
121	0xbdb2c025	-0.08728055
122	0x3d5f0f02	0.054457672
123	0xbc99ea3e	-0.018788453
124	0xbde82699	-0.11335487
125	0xbe0e1692	-0.13875797
126	0x3d5eae8e	0.054365687
127	0xbc953422	-0.018213335
128	0xbd9ca717	-0.07649057
129	0xbdd4ea81	-0.103962906
130	0xbcb5e8a4	-0.022205658
131	0x3e0e0b35	0.13871463
132	0xbddca8b8	-0.10774368
133	0xbd4cac59	-0.04996905
134	0xbd2d9c80	-0.04238558
135	0x3e0f1549	0.13972963
136	0x3ceb4609	0.028719919
137	0x3dfdf775	0.12400714
138	0xbd0ece29	-0.03486458
139	0xbca18071	-0.019714566
140	0x3de37448	0.11106163
141	0xbd49d37d	-0.049273957
142	0x3de75393	0.112952374
143	0x3e133833	0.14376907
144	0x3d3bb2fe	0.045824997
145	0x3d9a887e	0.07545565
146	0xbdd7da2a	-0.10539658
147	0x3e2f6e77	0.17131983
148	0xbdeaf4a3	-0.11472442
149	0x3dcf88a7	0.10133486
150	0x3d8a9b77	0.06767934
151	0xbb7585e5	-0.003746384
152	0x3d71fac9	0.059077058
153	0xbe0ccf30	-0.13750911
154	0x3e0821aa	0.13294092
155	0xbcfc40f8	-0.030792698
156	0x3dfb6d0a	0.12276657
157	0xbc4fc426	-0.012681043
158	0xbd2829a8	-0.04105535
159	0x3deb999e	0.115039095
160	0x3c70ac68	0.014689542
161	0xbda8ba07	-0.08238607
162	0x3d4dad13	0.050213885
163	0xbe20928a	-0.156809
164	0xbd94fe7f	-0.07275104
165	0xbdf44a3a	-0.1192822
166	0xbb20444e	-0.0024454775
167	0xbd8e8f59	-0.06960935
168	0x3ae14de2	0.0017189349
169	0xbe09e2e9	-0.13465466
170	0xbdf45d5c	-0.119318694
171	0x3c1e490a	0.009660969
172	0x3c79e2ae	0.015251799
173	0x3dcb58cf	0.09929048
174	0xbd08212f	-0.03323477
175	0x3e0692e6	0.13141975
176	0xbdf0c45d	-0.11756203
177	0x3d268336	0.040652476
178	0xbdfae249	-0.12250192
179	0x3e2ea90a	0.17056671
180	0xbcff46a8	-0.031161621
181	0x3df1b769	0.11802561
182	0x3c7cdc46	0.015433377
183	0xbdb0d095	-0.08633534
184	0xbd4c489a	-0.049873926
185	0xbdb2846e	-0.08716665
186	0x3dc64ff4	0.096832186
187	0x3e0cd54d	0.13753243
188	0x3e0a0a1f	0.13480423
189	0xbd27d13a	-0.04097102
190	0xbd15c5fa	-0.03656576
191	0xbdbabbc6	-0.09117846
192	0x3baf6cfc	0.005353568
193	0x3d3adf91	0.045623366
194	0xbd1ff6ff	-0.039053913
195	0xbd8eaea3	-0.06966903
196	0x3c0c750f	0.008572831
197	0x3c723ea1	0.01478544
198	0xbe0de95c	-0.13858551
199	0xbd9f02a1	-0.07764173
200	0xbb910bdc	-0.0044264626
201	0xbddcf13f	-0.107882015
202	0x3d558cab	0.052136105
203	0x3c496555	0.012292226
204	0xbc9a30a8	-0.01882203
205	0xbd2ce904	-0.04221441
206	0x3c8d721d	0.017266328
207	0x3cc3a9a3	0.0238846
208	0xbdbe3084	-0.09286597
209	0xbcf88519	-0.030336903
210	0x3dbe1fec	0.09283432
211	0xbd69a0b5	-0.057038028
212	0x3c55462b	0.013017218
213	0xbdfe2512	-0.12409414
214	0xbdf39cf7	-0.11895173
215	0xbcba9e74	-0.022780634
216	0xbd15d301	-0.036578182
217	0x3e43359f	0.19063424
218	0xbd331d99	-0.0437294
219	0xbe194b6a	-0.14970174
220	0x3e0f59e3	0.13999133
221	0xbdab8a38	-0.083759725
222	0x3e18324b	0.14862935
223	0xbcadc8b1	-0.021213861
224	0x3c9b6d93	0.018973147
225	0xbe21ef69	-0.15813984
226	0x3e09fcd3	0.13475351
227	0x3c40fc65	0.011778926
228	0xbdbb7b3e	-0.09154366
229	0xbdd16281	-0.10223866
230	0x3d3fddf3	0.046842527
231	0xbe30cd54	-0.17265826
232	0x3e12ec32	0.14347914
233	0x3e007a79	0.1254672
234	0x3e01c7bf	0.12673853
235	0x3de4bdd8	0.11169022
236	0xbde010b4	-0.10940686
237	0xbd985c36	-0.07439463
238	0x3dfc68de	0.12324689
239	0x3df5af6b	0.11996349
240	0x3e1e2ea0	0.15447474
241	0xbd6504e1	-0.055912856
242	0x3d1ac06a	0.037781157
243	0x3c143e8c	0.009048115
244	0x3db44228	0.08801681
245	0xbdb4de91	-0.08831514
246	0x3df4f5b7	0.11960929
247	0xbd239cb5	-0.03994437
248	0x3db31f78	0.087462366
249	0x3df1632a	0.11786492
250	0xbe139eee	-0.14416096
251	0x3d0414ec	0.032246515
252	0xbdda0d4b	-0.10647067
253	0x3d6fb50e	0.058522277
254	0x3e177801	0.14791872
255	0xbd41571f	-0.047202226

encoder.rnn.weight_hh_l1 f4 [40, 40]
0	0xbc05c359	-0.00816425
1	0xbe08c766	-0.13357314
2	0xbd7b5f38	-0.061370105
3	0xbe207785	-0.15670593
4	0x3b85b13c	0.004079966
5	0x3dc89308	0.09793669
6	0xbe2310f9	-0.15924443
7	0x3dc31d04	0.09527019
8	0x3e06aef0	0.13152671
9	0x3e11139e	0.1416764
10	0xbd85206c	-0.065003246
11	0x3c155966	0.0091155525
12	0x3d7b8c1b	0.06141291
13	0xbe1f67f5	-0.15567
14	0x3e06115a	0.13092557
15	0xbd03edea	-0.032209314
16	0xbe3038af	-0.17209123
17	0xbd83ad99	-0.064295955
18	0xbcafa18d	-0.021439338
19	0xbd2619af	-0.040551838
20	0xbd14f5d8	-0.036367267
21	0xbbba8b19	-0.0056928513
22	0x3d83d8e9	0.06437857
23	0x3d840f32	0.06448211
24	0xbe313f64	-0.17309338
25	0x3c3899f5	0.011267175
26	0x3c607d2f	0.013701721
27	0x3e2033cb	0.15644757
28	0x3d66babb	0.056330424
29	0x3dea5223	0.114414476
30	0x3d99f9ed	0.07518373
31	0x3c4b18e2	0.012396069
32	0xbd7952b6	-0.060869895
33	0xbdc50ed2	-0.096219674
34	0x3caa3581	0.020777466
35	0xbcfbf718	-0.030757472
36	0x3e143ec2	0.14477065
37	0xbd8f9e9a	-0.07012673
38	0x3dae4893	0.08509936
39	0x3e07be8d	0.13256283
40	0x3dacfc5c	0.08446571
41	0x3e134375	0.14381202
42	0xbd950085	-0.0727549
43	0x3dd4b911	0.10386861
44	0xbe36a1ff	-0.17835234
45	0xbd81fb5f	-0.06346773
46	0xbbf9d933	-0.007624769
47	0x3e04f5c9	0.12984385
48	0xbd2a433c	-0.041568026
49	0xbe17b59a	-0.14815369
50	0xbe24caaf	-0.16092943
51	0xbbf8c21b	-0.0075914986
52	0x3d026312	0.031832762
53	0x3d56929a	0.052385904
54	0xbd1c79c9	-0.03820208
55	0x3d776fcc	0.060409352
56	0x3d163f7d	0.03668164
57	0xbcbaf304	-0.022820957
58	0x3dccbc0e	0.09996806
59	0xbe082dac	-0.13298672
60	0xbdcf6089	-0.101258345
61	0x3ca1ab36	0.01973496
62	0xbd31fbbe	-0.04345297
63	0xbc491b7c	-0.012274619
64	0xbd82773f	-0.06370401
65	0x3d99a0cc	0.07501373
66	0x3e2bab22	0.167645
67	0x3dea123a	0.11429258
68	0x3d7a0083	0.061035644
69	0xbdb708d2	-0.08937229
70	0xbd8a118c	-0.06741628
71	0xbdbccc9a	-0.09218712
72	0xbd449730	-0.047995746
73	0xbd716381	-0.058932785
74	0x3de4db82	0.1117468
75	0xbe28d009	-0.16485609
76	0xb92ae63a	-0.0001629823
77	0x3dc3c8e9	0.09559805
78	0xbddba2ee	-0.10724436
79	0xbd3fece5	-0.04685678
80	0x3d9f2a1d	0.07771704
81	0xbd3700d6	-0.04467853
82	0xbd86fdd8	-0.065913856
83	0x3d9f648d	0.077828504
84	0xbdf8c00a	-0.121460035
85	0x3e2d21ac	0.16907376
86	0x3e160375	0.14649756
87	0xbc83a5a5	-0.016070196
88	0x3c11e492	0.008904593
89	0xbdc7aac6	-0.09749369
90	0x3cb5a9c7	0.022175683
91	0xbddcc734	-0.107801825
92	0xbcdecca8	-0.027197197
93	0x3e081fb8	0.1329335
94	0x3d359108	0.044327766
95	0x3dde11fe	0.108432755
96	0x3dfcd536	0.12345354
97	0x3e2619b2	0.1622074
98	0x3d5cef84	0.053939357
99	0xbdfb7d90	-0.122798085
100	0xbe1bfaf5	-0.15232451
101	0x3d9e8c23	0.07741573
102	0x3e092701	0.13393785
103	0x3e29c979	0.16580762
104	0xbdd52cc0	-0.10408926
105	0x3e07a8e2	0.13248017
106	0xbd3b26fe	-0.045691483
107	0x3c867e0a	0.016417522
108	0x3dea2122	0.11432101
109	0xbe074ff5	-0.13214095
110	0xbe370b4c	-0.17875403
111	0x3dc34a05	0.095356025
112	0xbe1db7ac	-0.15402097
113	0x3dad759b	0.08469697
114	0x3dd1eab2	0.10249843
115	0x3de7034f	0.11279928
116	0xbba8863a	-0.005142954
117	0xbd4d78f9	-0.050164197
118	0x3d3339e0	0.043756366
119	0xbcfa0817	-0.030521436
120	0xbe247d3d	-0.160634
121	0x3d3dc37d	0.04632901
122	0xbd99223e	-0.07477234
123	0x3dd15c95	0.10222737
124	0xbd5cdc3d	-0.053920973
125	0xbc228e20	-0.009921581
126	0xbde3f166	-0.111300275
127	0x3e110a7e	0.14164159
128	0x3d97cec9	0.07412488
129	0x3e0047c5	0.12527378
130	0x3da935fa	0.08262248
131	0xbd977c4c	-0.073967546
132	0x3e238d9a	0.15971985
133	0xbb05b574	-0.0020402344
134	0x3e018dca	0.12651744
135	0x3d30dc55	0.043178875
136	0x3de22c79	0.11043639
137	0xbd5da4f4	-0.05411239
138	0x3d8fdaef	0.0702418
139	0xbc40183a	-0.011724526
140	0xbe0be963	-0.13663249
141	0x3ddf9be3	0.10918405
142	0xbda5f803	-0.08103945
143	0xbdb007f7	-0.08595269
144	0x3e16b35d	0.14716859
145	0xbe0f2699	-0.13979568
146	0x3d839719	0.06425304
147	0x3deaeaa1	0.11470533
148	0xbc85db53	-0.016339933
149	0xbe2db2af	-0.16962694
150	0xbe170130	-0.14746547
151	0xbc925442	-0.017862443
152	0xbd0657f0	-0.032798707
153	0x3df879d8	0.12132615
154	0x3e0f9fca	0.14025798
155	0xbd8a3fe7	-0.0675047
156	0xbcd107dc	-0.025516443
157	0xbe155f27	-0.14587079
158	0x3d4b7ff7	0.049682584
159	0x3dd84110	0.10559285
160	0xbd78f75a	-0.060782768
161	0x3c32268d	0.010873449
162	0xbc0a15a2	-0.008428009
163	0xbe0563f1	-0.13026406
164	0x3e03c1b6	0.12866864
165	0x3d195e53	0.03744347
166	0x3e18a0c3	0.14905076
167	0xbe057862	-0.13034204
168	0xbd6023b3	-0.054721545
169	0xbd35af5f	-0.0443567
170	0x3d289f1d	0.041167367
171	0xbd04c13a	-0.032410838
172	0xbdaaff2f	-0.08349454
173	0x3e0cec7a	0.13762084
174	0x3df06eda	0.11739893
175	0x3e287702	0.16451648
176	0x3dcec739	0.100965925
177	0x3de1561d	0.11002753
178	0xbdca6fa3	-0.09884574
179	0x3bc2fd06	0.005950573
180	0xbd6b32fa	-0.057421662
181	0xbc7725b6	-0.015084675
182	0x3ce3047e	0.027712103
183	0x3d354c1e	0.044262044
184	0xbdb38fbd	-0.0876765
185	0xbd329f55	-0.043608982
186	0xbd86c4c6	-0.065805
187	0xbd3133c3	-0.043262254
188	0xbdb97273	-0.090550326
189	0xbdad32ef	-0.084569804
190	0xbdda5923	-0.10661533
191	0xbdf36bfc	-0.11885831
192	0xbcafd7c6	-0.021465193
193	0xbe0052f7	-0.12531649
194	0xbe15f7e4	-0.14645344
195	0x3dbfe74a	0.09370287
196	0xbda9df82	-0.08294584
197	0x3dd3356f	0.10312926
198	0x3c1de97a	0.009638185
199	0xbd0ba8d5	-0.034096558
200	0x3dc79077	0.09744351
201	0xbdcea289	-0.10089595
202	0x3dc78266	0.097416684
203	0x3dea7103	0.114473365
204	0x3df60065	0.12011794
205	0xbdfa7408	-0.122291625
206	0x3cc4c70f	0.0240207
207	0xbca7506b	-0.020424088
208	0xbe055521	-0.13020755
209	0x3dab32a5	0.08359269
210	0xbd452e76	-0.04814001
211	0x3dd2a11e	0.10284637
212	0xbd75982a	-0.059959568
213	0xbd4e754b	-0.050404828
214	0x3d724cea	0.059155382
215	0x3d00ac31	0.031414215
216	0x3deb8394	0.11499706
217	0x3db0d2d0	0.08633959
218	0x3e15d903	0.14633565
219	0xbe0b0756	-0.13577017
220	0x3c86691a	0.016407538
221	0x3dc233ce	0.09482537
222	0xbd642ab5	-0.05570479
223	0xbdce369d	-0.100690104
224	0x3e1eb716	0.15499529
225	0xbe0e504b	-0.13897817
226	0xbdc08e2b	-0.094021164
227	0xbe26a041	-0.1627207
228	0x3d63e92c	0.055642292
229	0x3d305c14	0.043056563
230	0xbe2c47cc	-0.16824263
231	0x3d9267c8	0.07148701
232	0x3cdcf3d4	0.026971735
233	0x3d9b10ac	0.07571539
234	0xbe08f5e9	-0.13375057
235	0xbe1c611c	-0.1527142
236	0xbe0290d6	-0.12750563
237	0xbdb81983	-0.08989241
238	0xbdf28e2f	-0.118435256
239	0x3d630d00	0.05543232
240	0xbb81e7cf	-0.0039644013
241	0xbd9cfed3	-0.07665791
242	0x3e04bbb5	0.1296223
243	0x3b32f83f	0.002730861
244	0x3ccede69	0.025252538
245	0xbdd40084	-0.10351661
246	0xbd62cc96	-0.05537089
247	0xbdf8ae90	-0.1214267
248	0xbdc5cc05	-0.09658054
249	0x3e2e28ed	0.170078
250	0xbdba719a	-0.09103699
251	0x3dcb8bec	0.09938797
252	0x3dc11c8c	0.09429273
253	0x3dcedee1	0.101011045
254	0x3df4e190	0.11957085
255	0x3e1571aa	0.1459414

encoder.rnn.bias_ih_l1 f4 [40]
0	0x3e28bf05	0.16479118
1	0xbe2cfa36	-0.16892323
2	0x3e054cb0	0.13017535
3	0xbd2da971	-0.04239792
4	0xbd63dd0e	-0.055630736
5	0xbe0610eb	-0.13092391
6	0xbd2e8cc9	-0.042614732
7	0x3d332b73	0.04374261
8	0xbd9d5b99	-0.076834865
9	0x3e261424	0.1621862
10	0x3d90d99f	0.07072758
11	0x3deba856	0.11506717
12	0xbe1c57b6	-0.15267834
13	0xbdd63d07	-0.10460859
14	0x3c1d2f35	0.009593775
15	0xbd85f90c	-0.065416425
16	0xbe0614f9	-0.13093938
17	0xbda6fddb	-0.08153888
18	0xbe21ceb8	-0.15801513
19	0x3e1f3359	0.15546931
20	0x3dd9b6a5	0.1063054
21	0xbe01251a	-0.1261181
22	0xbda3d4ef	-0.07999598
23	0x3df8f981	0.12156964
24	0x3df5beb3	0.119992636
25	0x3cdf2be0	0.0272426
26	0xbd86b3ea	-0.06577285
27	0x3dacc245	0.084354915
28	0x3d28ecb7	0.041241374
29	0xbd422094	-0.04739435
30	0x3d6f0d48	0.058362275
31	0x3e15661c	0.14589733
32	0x3e0fd187	0.14044772
33	0xbe1caab7	-0.15299498
34	0x3d45a814	0.048255995
35	0xbbb98a35	-0.0056622275
36	0x3d92d541	0.07169581
37	0xbd50b7f8	-0.050956696
38	0xbd9d461b	-0.07679387
39	0x3e16be60	0.1472106

encoder.rnn.bias_hh_l1 f4 [40]
0	0x3e0691c7	0.13141547
1	0x3cedad1d	0.02901321
2	0x3e007d3d	0.12547775
3	0xbdf73451	-0.120705254
4	0x3e089e18	0.13341558
5	0xbe32a66a	-0.17446294
6	0x3dbac1fb	0.0911903
7	0x3dbabbe8	0.091178715
8	0x3df4e4f3	0.11957731
9	0x3ded65a9	0.11591656
10	0x3e02beae	0.12768051
11	0x3de0a11d	0.1096823
12	0xbe2cf338	-0.16889656
13	0x3df500dd	0.11963055
14	0xbd3cde38	-0.04611036
15	0x3d030592	0.031987734
16	0xbe23d5ff	-0.15999602
17	0xbe2846e9	-0.164333
18	0x3dc0b0c7	0.094087176
19	0xbe08430f	-0.13306831
20	0x3d89c582	0.06727125
21	0x3dfec7ca	0.124404505
22	0x3e0a62be	0.1351423
23	0xbddb9b41	-0.10722972
24	0x3b4b88fc	0.003105699
25	0x3dd11b90	0.10210335
26	0xbe19f7cc	-0.15035933
27	0xbb2e4160	-0.002658926
28	0xbe0eef4b	-0.1395847
29	0xbe079dc8	-0.13243783
30	0xbd6213da	-0.055194713
31	0xbd3e4cd0	-0.046459973
32	0x3e2ea905	0.17056663
33	0xbc97d987	-0.018536342
34	0xbd8d46c7	-0.06898265
35	0x3bd9e5f1	0.0066497256
36	0x3d974698	0.073865116
37	0x3e30e93f	0.17276476
38	0xbb1a1b8c	-0.0023514954
39	0x3e170e17	0.14751469
